Test/mnist_cnn.pth (torch, 437720 bytes, 8 tensors)

conv1.weight f4 [16, 1, 3, 3]
00000000: 84fc da3d 4877 35be 9f56 3abe 3471 da3e
00000010: b389 82be 3743 e2be d021 fc3e 46ca 933d
00000020: 9823 86be 005b 903e 7613 b3be 0ba5 b6bb
00000030: 1029 c9bd 281a 3dbe a8f7 96be cabc f8bd
00000040: fba6 03bf 720a 71be 331b 77be fed8 dc3e
00000050: 522a bc3e 1bb8 f63e f4c7 a53d ce58 05be
00000060: 4cd8 213e 04f3 b9be 8944 9bbe f115 003d
00000070: 4202 593e 4cdd 7ebe 27be 973c 97b7 e33e
00000080: 5acd f03d 4fc2 e2be c19f 53bd ba91 cf3e
00000090: fa11 9c3d 7ca7 213f 1a98 793e 3f3e aabd
000000a0: 64fa d7bd a54d 073f a86c 0dbf e99d 18bf
000000b0: 6b86 9fbe 2754 b23e 7a50 c63e bdf9 abbe
000000c0: 3b03 db3e e9c9 093e 5331 fabe 0787 ca3e
000000d0: 3282 a83e 9279 26be 07d6 b63e b949 8e3e
000000e0: cf6e 79bd 5c40 a4bc 4621 083e 642d c2bd
000000f0: f9cb f6be 0baa 11bf 234b f5be 5cad 34bf
00000100: eaef bcbe 17c6 8e3c a1cd 8cbd f201 2cbe
00000110: 5f03 843e 6cb3 e13e e511 793e ed0e c13e
00000120: 3cdc 0c3e 2ec4 de3e 7832 c53d a55f 603e
00000130: 4b46 8c3d 1749 afbe 3109 453d 7b69 c23e
00000140: ff96 e7be f658 b8bd d6ac 0d3f 6680 423d
00000150: 1986 36bf c5a5 bbbe 83ef 04bf 6446 323d
00000160: d7fd f0be 063b 19be bf49 823e f6c2 973e
00000170: 6fcc be3e e04b b5bd 1406 983d 9ffc 4c3e
00000180: d10f 81bd 92e9 9b3d 0d2c 8fbe 7148 01be
00000190: 1a3f 963e 727b 603e 0d77 883e 0da6 e03e
000001a0: 32f2 ca3e c7db 413e d8ff cf3d 45ea 5cbe
000001b0: 7c83 653e 2a9c a5be e56f aa3d 1800 633e
000001c0: 08d9 6cbe b5d5 edbe 3883 923e 8b57 913e
000001d0: 273e e83d 8015 81be 9463 a03e 8e48 fd3d
000001e0: 817f 55bd 7bc8 8c3d 317c d73e 331d 323e
000001f0: a248 f1be 7e31 02bf 3f79 03be 87fd 7abd
00000200: 79ba 4d3d 95b1 cc3e abad 7e3e 38dd 57bd
00000210: f1c5 5d3e 92bd 8abd ef72 ba3e d9d9 233f
00000220: 1de4 8c3e 5e64 cebe ef6f 623d 1c2a aebe
00000230: ee0d 12bf a6fb 08be 101e 8bbe 9c10 82be
0.10692695 -0.17721283 -0.18197106 0.42664492 -0.2549568 -0.44191906 0.49244547 0.07216315
-0.2619903 0.28194427 -0.34975785 -0.005573874 -0.09822285 -0.18467009 -0.29485822 -0.12145384
-0.51426667 -0.23539141 -0.2413147 0.43134302 0.36751038 0.48187336 0.08094779 -0.13022158
0.15805167 -0.3631822 -0.30325726 0.031270925 0.21192268 -0.24889106 0.018523289 0.44476005
0.11757918 -0.4428887 -0.051666025 0.40540868 0.07620616 0.63146186 0.24374428 -0.08312654
-0.10545805 0.5285285 -0.5524392 -0.5961595 -0.3115724 0.34829828 0.38733274 -0.33588973
0.42775902 0.13455929 -0.48865756 0.39556143 0.3291183 -0.16257313 0.35710165 0.2779062
-0.06089669 -0.02005022 0.13293943 -0.09481314 -0.48202494 -0.5690009 -0.47908887 -0.70577025
-0.3690179 0.017428441 -0.06875158 -0.16797617 0.25783822 0.440822 0.24323232 0.377067
0.13755888 0.43509048 0.09628767 0.21911485 0.06849345 -0.3423545 0.04810447 0.379711
-0.45232388 -0.09001343 0.5534185 0.04748573 -0.71298367 -0.3664991 -0.51927966 0.04352416
-0.47068664 -0.14963922 0.2544689 0.2964093 0.37265345 -0.08852363 0.07423034 0.20018242
-0.06301845 0.076129094 -0.27963296 -0.1262529 0.29345018 0.2192209 0.2665333 0.43876687
0.39637905 0.18931495 0.1015622 -0.21573742 0.22413439 -0.32345706 0.083221234 0.22168005
-0.23129666 -0.46452108 0.28615737 0.28387102 0.113399796 -0.25211716 0.31325972 0.12367354
-0.05212355 0.06874176 0.42086938 0.17393951 -0.47125727 -0.5085677 -0.1283922 -0.06127694
0.050226662 0.39979234 0.24870937 -0.052701205 0.2165754 -0.06774439 0.36415812 0.64004284
0.27517787 -0.4031095 0.05528253 -0.34016502 -0.57052505 -0.13377246 -0.27171373 -0.25403297

conv1.bias f4 [16]
00000000: 5151 2a3e e255 b93e ed7a 81ba 5897 88bd
00000010: 5ca5 1a3e 66c6 60bc f668 af3e fe46 2a3e
00000020: 69b2 2abb 46e0 8c3e ff19 3abc 03eb 90bb
00000030: b504 e8bd 7297 f53d d554 5dbc fa33 a83e
0.16632582 0.36198336 -0.0009878554 -0.066694915 0.15102142 -0.013719177 0.34259766 0.16628644
-0.0026046282 0.27514857 -0.011358737 -0.004422547 -0.11329023 0.119917765 -0.013508995 0.32852155

conv2.weight f4 [32, 16, 3, 3]
00000000: 8abc 86bd 010b 19be beb8 34be 908f c0bd
00000010: 9ef0 87bd 3621 4dbe 95ba 90bd 75cd 193c
00000020: 34dc b3bd b078 09be d7c2 1bbe 2eb9 73bc
00000030: cb0a 2abe cf79 833d a01f d5bd 2035 7cbd
00000040: ca4b 2e3d 098e b2bd 5d2d 6cbc 2d4a 563c
00000050: 9c66 263e 3175 233e 6bd4 8c3d 7cb1 1fbc
00000060: 72c3 bb3d 637a 60bd f4f6 2abd 3949 833d
00000070: aa81 45bd 8965 9f3b 57de 7cbd 91f7 bbbd
00000080: 0392 ac3d f161 f73d 3a9f 02bd b618 fa3d
00000090: 4cbf 383e ecf8 61bd 7073 efbc 84d5 14be
000000a0: ca45 5b3d 1118 463d 694f e83d 2a64 3f3d
000000b0: 0ca6 063e c3ba 933d 7d7a c5bd 7ea2 36bd
000000c0: 9b16 8a3d cf60 22bd df29 44bc f65a 42bd
000000d0: ddd1 a7bd c6a6 13be 3c05 673d e2e5 1abe
000000e0: 7401 41bd feb0 61be f6b8 cb3c 7036 9fbd
000000f0: 8700 aa3d 7a8e 763d 2fbf 66bd bef2 00bc
00000100: efcf d53d c449 90bc 8d61 003e 5947 583d
00000110: 4a69 1cbe 4c36 04be cbfe 15bd 58de 2fbd
00000120: d5c9 b93b bc5e e1bd be53 9a3c a636 0ebd
00000130: 2a2f 983d 520c 723d 252b f0bc d0aa 65bd
00000140: a985 e5bd 861a fabd 3422 0bbe 5ccb 42be
00000150: 828d 23be b5fe 7ebd f7d8 7d3d 1051 d9bd
00000160: 703b 29bd ef47 3d3d ba2a 333d 99c3 783d
00000170: f719 173d f286 cc3d a12c a53d f414 493d
00000180: d33b ad3d cc98 773c d417 32bd 7216 d7bd
00000190: 5ba2 a73d 8727 023d ba8e bf3c 8dc0 ab3d
000001a0: 41e3 cebc c6bc 1fbd 6172 1bbe f506 69bc
000001b0: 88fe 0d3e ad4b 03be f8a8 b7bd ca2f b13d
000001c0: fca9 2cbb cdd7 b03d fec7 073e 9d09 c13d
000001d0: 759d 72bd 4b12 863d 22eb 1ebd 6d1b 0d3e
000001e0: 5384 e23d 4e9e 0a3e 6803 8ebd 8613 a93d
000001f0: d0af 363d e86f 753d aaf4 d23a a6ce 853d
00000200: 10b4 043d 1db3 883b 5354 a53d b14b 273d
00000210: 9be5 a2bd af92 f43c f147 2c3d 6258 9c3b
00000220: d24c f2bd 7655 bbbc 81b4 29be b0da 85bc
00000230: 2412 ac3d e5e3 e13c dab0 813d 0a03 9abd
00000240: 5608 8fbe b7cf 68bc e9b1 9ebc b1dd b3be
00000250: 52e5 063d 29ae af3d b0b2 93be 3001 d03d
00000260: 753e 9c3d 1557 06be b2ca 823c 441a 21be
00000270: 9875 a5bd 40bd c0bd 8836 11bd 65a6 103d
00000280: 85e3 bbbd 5fa4 24bd 551a 21bb 9794 acbb
00000290: 5ce4 ac3d d1e8 763d 91c2 413d acff f03d
000002a0: 26f4 13be 932f 8e3d 7711 943d 3de5 c83c
000002b0: 7063 2e3d 7e92 ae3d ab51 113c 76ac 0b3e
000002c0: 1c7f 6abd 4fae 4d3d 61c9 153e 7bfa 2cbe
000002d0: b572 09bd afcd 5abe 54ee 71be 4089 d73c
000002e0: 6e64 8abe bc29 73be a06f afbd 3e00 86be
000002f0: a972 65be 365d 2abe eddd 0b3d 9fcb 16bd
00000300: 15eb d3bd 5ecd 953d 2e8e d73d 0060 73be
00000310: 7eb3 2e3e a5e0 ef3d cd2d acbd c3e2 e2bd
00000320: 415f 1abc f66f 9c3d 1a16 f4bd f0f7 40bd
00000330: cc84 0cbd 454e 03be 02dd a9bd 8bed ec3d
00000340: b9cc 43bd f546 34bd b4ec a03c ce62 05be
00000350: 1923 e3bd 1fe6 8c3d a71c 1e3c dc16 0dbe
00000360: 0191 67be 7d2b 5bba 8be7 db3d 65a3 03be
00000370: b34b fc3d d29f 5e3d 2251 a6bd 6b31 fe3d
00000380: e29b 933d c0ca 1abe 85ae d6bd 7213 92bd
00000390: 2824 04be 89dd 48be 7894 a3bd 254c c4bd
000003a0: d2bb c0be 0195 083e 9cc6 04bb e13e c83d
000003b0: 0fcc 9b3d 70b4 a53d ca6e 9c3d 5210 a63d
000003c0: d9bd 58bd 4330 d2bc 9550 85bd 3a1c 9a3d
000003d0: e5c8 813d 64ca 9e3d 7622 b03b 4cca 363b
000003e0: ecae a63d c3e1 edbd fe47 a93c cce3 9bbb
000003f0: 06a5 82bd 345b dbbb 870a 10be 9913 a6be
-0.0657893 -0.14945604 -0.17648599 -0.094023824 -0.06637691 -0.200322 -0.07066838 0.009387364
-0.08782235 -0.13424945 -0.15211044 -0.014875693 -0.1660568 0.064197175 -0.104064226 -0.0615741
0.042552747 -0.08718497 -0.014415112 0.013079208 0.1625008 0.15962674 0.06876453 -0.009746905
0.091681376 -0.054804217 -0.04173942 0.064104505 -0.04821936 0.004864399 -0.061735477 -0.09178079
0.08426287 0.12079228 -0.03189013 0.122117445 0.18041724 -0.05516903 -0.02922985 -0.14534575
0.053533353 0.048362795 0.11343271 0.046726383 0.1314928 0.07213356 -0.096425034 -0.04458856
0.06742593 -0.039643105 -0.0119728735 -0.04745003 -0.08194325 -0.14419088 0.056401476 -0.15126756
-0.047120526 -0.22040173 0.02486847 -0.07774055 0.08300882 0.06019447 -0.05633467 -0.007870374
0.10440051 -0.0176133 0.12537213 0.052802417 -0.1527454 -0.12911338 -0.036619943 -0.042936653
0.005669812 -0.11004397 0.01883876 -0.034720086 0.07430871 0.05909378 -0.029317448 -0.056071103
-0.11207134 -0.1221209 -0.13587266 -0.19022888 -0.1597195 -0.062254626 0.061974492 -0.106111646
-0.04131645 0.04621118 0.04374192 0.06073341 0.036889996 0.09986676 0.08065153 0.049092248
0.08458676 0.015112113 -0.043479756 -0.10502328 0.08185264 0.031775977 0.023383487 0.083863355
-0.025254847 -0.038998388 -0.15180351 -0.01422285 0.13866627 -0.12821837 -0.08967775 0.08651693
-0.0026346436 0.08634911 0.13259885 0.09425662 -0.059232194 0.06546458 -0.03879846 0.13779993
0.11060395 0.13536951 -0.069342434 0.08255677 0.04460126 0.059921175 0.0016094644 0.06533556
0.032398283 0.0041717426 0.08072724 0.04084367 -0.0795395 0.0298551 0.042060796 0.0047712782
-0.118310586 -0.0228679 -0.16572763 -0.01633963 0.084018975 0.027574489 0.0633256 -0.07520111
-0.27936047 -0.014209679 -0.019371944 -0.35130075 0.03293354 0.0857814 -0.28847265 0.101564765
0.076291 -0.13119157 0.015965793 -0.15732676 -0.0807907 -0.094110966 -0.035452396 0.035314936
-0.09174255 -0.04019582 -0.0024582346 -0.0052667367 0.084419936 0.060280625 0.047304694 0.117675155
-0.14448604 0.06942668 0.07229894 0.024523372 0.0425753 0.08524035 0.008869569 0.13640007
-0.057250127 0.05021506 0.14627601 -0.16892426 -0.03355666 -0.21367525 -0.23626071 0.026310563
-0.27029747 -0.23746389 -0.08566213 -0.2617206 -0.2240702 -0.1663712 0.03414719 -0.036815282
-0.10347573 0.07314561 0.105251655 -0.2376709 0.17060658 0.117127694 -0.08407173 -0.110784076
-0.009422124 0.07638542 -0.11918278 -0.04711145 -0.034306332 -0.12822826 -0.08294107 0.11568745
-0.04780266 -0.044012982 0.019644119 -0.13025972 -0.11090679 0.068798296 0.009650386 -0.13778251
-0.22613908 -0.0008360667 0.10737523 -0.12855299 0.12319126 0.054351635 -0.081209436 0.124117695
0.07207467 -0.15116405 -0.10482506 -0.07132615 -0.12904418 -0.19615759 -0.079873025 -0.09584836
-0.37643296 0.1333809 -0.0020259982 0.09777618 0.076072805 0.08091056 0.07638319 0.081085816
-0.052915428 -0.025657779 -0.065095104 0.07524915 0.06337146 0.07753447 0.005375202 0.0027891574
0.081388324 -0.11615326 0.020664211 -0.00475738 -0.06379132 -0.006694222 -0.14066516 -0.32436827

conv2.bias f4 [32]
00000000: d065 103d 20c8 8fbc ee90 d2bc 5fd7 a4bd
00000010: 62b6 e9bc fe34 f2bd 3c51 31bd 3441 fa3c
00000020: 0c83 543d 54f1 1ebd a9f9 283b cf81 7e3b
00000030: fdcb 8cbd 5fe0 b83d fae2 4ebc b2a7 84bd
00000040: f9e7 acbc 914e 8d3a 438f 5fbd 30c7 90bc
00000050: 9e61 2c3d 5773 7fbd 03c6 99bd 0b19 79bd
00000060: 8fdf 1cbc f4d3 87bd 4dc7 e33c 86ce 953c
00000070: f871 fabc 963d 80bd b665 2ebc d05a 78bd
0.035253346 -0.017551482 -0.025703873 -0.08048891 -0.02852935 -0.11826514 -0.04329036 0.03054867
0.05188279 -0.038804367 0.0025783575 0.0038834696 -0.06874845 0.090271704 -0.012627358 -0.06477298
-0.021106707 0.0010780861 -0.054579984 -0.017673105 0.042085283 -0.062365856 -0.07508471 -0.0608149
-0.009574785 -0.06632224 0.027804995 0.018286955 -0.030571923 -0.062617466 -0.010644367 -0.06063348

fc1.weight f4 [128, 800]
00000000: 38fd b2bd 41fc 92bd a635 aabd 2133 d63c
00000010: 3154 1d3d bac4 10be 6fff 69bd bccb c8bd
00000020: 354c 45bd 0a6c 173e d27a b5bd 58b1 c3bb
00000030: ea8a c53c fda5 bcbc c23e bebd 04d8 1c3d
00000040: 8735 613d 683c 593d af3f b4bc dda3 4c3c
00000050: 67f6 6f3d 342c 303c 0f16 a93c 1840 01bd
00000060: 701d a3bc 0f1a ac3b d263 0fbd 5328 113e
00000070: a338 b2bd 5380 b0bc af66 26bc 6895 013d
00000080: 9f1d ab3d ee3d 0cbd 9871 b9bd fc89 3cbd
00000090: 8ddb 673d 9b39 073e 668b 703d 1922 3e3c
000000a0: 9a92 9ebd 23f6 91bb 38c7 9a3d 64ee 973c
000000b0: 417a 8bbc 76b7 86bb 69ad bb3d 1274 1f3d
000000c0: 6a57 703d 4b2d 9abc 9cda a83b de8b c0bb
000000d0: 824b 3abd 997f 8e3c f8c8 a23d 116f 97bc
000000e0: 5a1f 2c3c 8ce1 af3d c4d2 073d 962b efbc
000000f0: 6744 25bc e380 98bc 424e f53d 84bc 2dbd
00000100: 4376 87bd 1f3f 9bbb 08af 34bc 8849 4cbd
00000110: 1a14 6e3d dd54 0f3d baef 35bc 7e86 bebc
00000120: afa9 bdbc c74c 773c afa0 843d bc8c 2abc
00000130: c047 13be 2034 5bbe ee3f ecbd 3ee0 06bc
00000140: 198d 5b3d aec3 9ebd 7dce 7bbe 7811 033e
00000150: 1c07 b43e ad80 73bd 0279 84bd e7ed a3bd
00000160: 2946 6c3d 50ef 653e 281a d3bb d6d5 bebd
00000170: 77ae bb3c 660d c53d ffad adbd c07d fa3b
00000180: 849d a73c 9eb7 903c 56ae adbc 7d11 78bd
00000190: 56d5 c13d 51b6 2f3c 28d4 c2bc 3753 6abd
000001a0: 97eb 22bd 6715 0c3d 662a e93c 83b7 1b3e
000001b0: cf21 933d d44c a2bd 0e78 66bd c8e3 333d
000001c0: 274f ae3d 8bf8 cc3d 1331 0f3d 8b2d a9bc
000001d0: 0786 4a3c c696 08bd a351 583d a3b3 053d
000001e0: aff1 8cbd 0b28 23bd c2ae e93d 5c35 a43c
000001f0: bb42 f23d e4f3 bdbd 6147 17be 1338 4ebe
00000200: ff63 03bd f2bc c83d fcec aabc 1f66 7fbe
00000210: 888f 95be 08b0 ba3b a56c 643e 0402 a4bd
00000220: a4a1 65be 8140 fcbd cd62 ec3c 7f50 613c
00000230: 4598 10bd 7ae9 40bd b673 9c3d c594 2b3c
00000240: a86a 26be 75aa 0e3d 5330 7dbd 3d83 40bd
00000250: 9f2e 47bc 2a1b 26bd f942 b33d d2c9 e63d
00000260: bd95 f83d 3ea5 f73c 30af 12bd a15a c13d
00000270: 2ae3 dd3c 11f5 f63d b7a2 e53c b505 1fbd
00000280: 861b 36bd afe4 22be 4efd 923d cdcd 48bb
00000290: 419e aeba 2d84 1cbd ea4e 7b3d caef 073e
000002a0: f50f 1bbd 3b0e 333d 2cab 00bd 1d9e 5f3d
000002b0: de51 013d 3019 733c 0f1a c53d 1b73 77bd
000002c0: 7f60 92bd 7a7c 253d 4a97 8dbd d363 633d
000002d0: 22be 99bd b753 3cbd dc9a 383d a141 8b3c
000002e0: 2eae 173d b92e 94bd 79b4 333d e32a 173e
000002f0: 0229 c23d fe3e 453c 67f1 59bd 5f4d 3e3c
00000300: 2806 c43d 1848 0f3d f113 693b 1f58 a3bc
00000310: de1e 983c 0821 133e 6280 3f3d b8e9 9b3b
00000320: f6a5 61bd 2d1c aebc 4291 60bd 4ab0 773c
00000330: 859b 273d 91d1 acbd 3374 93bd cc5c a5bd
00000340: 9cd9 723c 9b8b 233e c252 e7bc ecad 3bbd
00000350: 7103 163d 45a2 24bd 82a6 2d3c fc77 053d
00000360: ac8a 5c3c 9f16 a43c 63dc d3bc e94a debd
00000370: dbbe 8c3d a0f3 903d 1497 403d 7156 b1bc
00000380: df3d 63bd 7888 12bc 0fd2 013d aa73 df3d
00000390: fdc1 133e 79ed 403d 7032 853c a61f 2d3d
000003a0: e02a 423e 3707 8c3e 2555 27bd fce5 94bc
000003b0: a648 473d 7922 d93d 0cec dfbd 8b96 873c
000003c0: 5b9e 443a 065a 1b3d 4743 4d3d 4482 57bd
000003d0: d2b7 bf3c a7ad 343c a65d a73d e44b eabd
000003e0: 40ca b03d 2a23 1cbb cea6 05bd 5dfd 49bd
000003f0: 9609 b2bd ed40 62bd 8507 363c 8c7c b9bd
-0.08739704 -0.0717702 -0.08311014 0.026147427 0.03841037 -0.14137545 -0.057128366 -0.09804484
-0.04816838 0.14787307 -0.08861317 -0.0059720688 0.024114091 -0.023028368 -0.09289314 0.038291946
0.05498269 0.053036124 -0.022003023 0.01249024 0.058584597 0.010752726 0.020640401 -0.031555265
-0.019911498 0.00525213 -0.035007305 0.14175539 -0.08702209 -0.021545565 -0.010156318 0.031636626
0.08355259 -0.03423875 -0.090548694 -0.04603003 0.056605864 0.13205568 0.05872669 0.011604809
-0.07742806 -0.0044543906 0.07557529 0.01854629 -0.017026069 -0.0041112257 0.09163935 0.038929053
0.058677115 -0.018820425 0.0051530134 -0.0058760485 -0.045482166 0.017394828 0.07948488 -0.018485578
0.010505522 0.085879415 0.033159986 -0.029195588 -0.010087109 -0.018616145 0.11977817 -0.04241611
-0.066143535 -0.004737749 -0.011028059 -0.049874812 0.05812464 0.03499304 -0.011104519 -0.02325749
-0.0231522 0.015093989 0.064759605 -0.01040953 -0.14382839 -0.21406603 -0.11535631 -0.008232174
0.053601358 -0.07752167 -0.24590488 0.12799633 0.35161674 -0.059448887 -0.06468393 -0.08004361
0.057684097 0.22454572 -0.006442327 -0.0931813 0.02291034 0.09621696 -0.08480453 0.007644385
0.020460851 0.01766568 -0.021201294 -0.060563553 0.09464519 0.01072462 -0.023782805 -0.057208266
-0.039775457 0.0342001 0.0284626 0.15206723 0.07184183 -0.0792481 -0.056266837 0.0439184
0.08511191 0.10008343 0.03495891 -0.0206516 0.012361056 -0.033346914 0.05281223 0.032642018
-0.06882035 -0.03983311 0.114102855 0.020044975 0.11829134 -0.09275034 -0.14773323 -0.20138578
-0.032077786 0.098016635 -0.020864956 -0.249413 -0.29211068 0.005697254 0.2230707 -0.08008197
-0.22424942 -0.12316991 0.028855706 0.013752102 -0.035301466 -0.04709766 0.076392576 0.010472481
-0.16251624 0.03483053 -0.061813664 -0.04700016 -0.012157111 -0.04055325 0.087530084 0.11268963
0.12137935 0.03023016 -0.035811603 0.09441114 0.02708586 0.120584615 0.02803169 -0.038823802
-0.044459842 -0.15907548 0.0717722 -0.0030640245 -0.001332231 -0.03821199 0.061354555 0.13275066
-0.037857015 0.043714743 -0.031413242 0.054594148 0.031572215 0.014837548 0.09624111 -0.060412508
-0.071473114 0.040401913 -0.06913622 0.05551512 -0.07506968 -0.045978274 0.04506956 0.016999068
0.037031345 -0.07235474 0.043873284 0.14762454 0.09480478 0.012038944 -0.053208735 0.011615126
0.09571487 0.034980863 0.0035564865 -0.01993948 0.018569406 0.14368069 0.046753295 0.004758086
-0.055089913 -0.02125367 -0.05482603 0.015117714 0.0409198 -0.08438409 -0.071998976 -0.0807434
0.01482239 0.15971224 -0.028237704 -0.04582016 0.036624376 -0.040193815 0.010598781 0.03258513
0.013460796 0.020030318 -0.025861925 -0.10854132 0.0687234 0.07077718 0.04701908 -0.021647664
-0.055478927 -0.0089436695 0.031694468 0.10910733 0.1442947 0.04710147 0.016259402 0.04226651
0.18961668 0.27349254 -0.040852685 -0.018176071 0.048653267 0.10602278 -0.10933694 0.016551277
0.00075004034 0.03792765 0.05011299 -0.052614465 0.023403082 0.01102773 0.08172159 -0.11440256
0.08632326 -0.002382467 -0.03262978 -0.04931389 -0.086932346 -0.0552377 0.011110191 -0.090569586

fc1.bias f4 [128]
00000000: 2927 b63c 0938 bfbc 15b9 1fbd 0fc6 be3c
00000010: f8d3 b93c e763 72bc 13a5 673d c515 b03c
00000020: 8321 97bc 3664 e13c 321a 4c3c 5c88 30bd
00000030: 5c96 ce3c b1e3 ba3c 7183 3ebb 22af 183c
00000040: 9e28 1dbb 7e90 23bd 92c2 dbbc 4e77 c43c
00000050: 5bf6 553c cedc 56bc 4c2d 7fbb 085a c93c
00000060: 728b dfbc 43f7 003c 0176 153d 6981 3ebd
00000070: 83c6 18bc e192 f5bc 8efa 263d f7b5 173c
00000080: a138 773c 0c88 1cbd 639b fb3c 08ac dfbc
00000090: 0f6d 5b3d 79bd 83bc 1b35 f93c 23d7 413c
000000a0: 3868 6d3d 7999 963c 4ef0 db3c aab0 80bc
000000b0: 8c41 f93b 4676 8dbc 141e 6b3b 8ad4 9e38
000000c0: c773 e43b 02cb fb3c 1bd2 05bd df96 c63c
000000d0: 580a c1bc 029a 9d3a 18b0 2bbd c616 393c
000000e0: f6fe 093c f84a 76bd dcf0 963d 6afe fc3b
000000f0: dd41 09bd f83e 813c 94d4 513d 2c5f 113c
00000100: 2260 273d d11f 373d b14e 52bc b7d8 103d
00000110: d5aa 81b9 3054 7aba cf75 d43c 63ac d5bb
00000120: 24ee 1a3c 2f2f a93c 0663 043d 8507 563b
00000130: 84b0 a23c e1c9 073c 6bfd 18bc f7b4 b43c
00000140: 4697 003c 2894 8ebc 3606 933c adc7 2abd
00000150: 9946 453b 8e48 c53c f1da d13c 4df8 50bc
00000160: f64a b13c e108 593c 826d bd3c 3a6a 613c
00000170: 751c 8c3b 98cf 39bc 658e 143d 5476 6fbc
00000180: b6ca 2a3c 3e0e 033d 4733 323d e579 11bc
00000190: bff0 d73c eaf5 aabc 5944 cd3b dace ba3c
000001a0: 5529 c33c e674 713c f722 ca3c 8466 813c
000001b0: fa4b 8c3c 288c 23bc 0e13 ef3c 0e4d 82bd
000001c0: 9d19 153d e35d 4cbb 5e7c e93c f54a 443d
000001d0: 24b6 983c 6912 b8bc 079a 1f3d 6124 46bc
000001e0: 77f1 3abd a637 a0bc 4cc2 be3c 74fb 743c
000001f0: f572 b7bb 9869 cabc e02e ea3c 5b9a bc3c
0.02223547 -0.02334215 -0.038994867 0.023287801 0.022684082 -0.014794326 0.05655391 0.021494756
-0.018448597 0.027513605 0.012457417 -0.043098792 0.025218181 0.02281365 -0.0029070044 0.009319099
-0.0023980509 -0.03993272 -0.026826177 0.02398267 0.013059224 -0.013114167 -0.003893691 0.024579063
-0.027288172 0.007871452 0.03648949 -0.046510134 -0.009324673 -0.029977264 0.04076629 0.009259692
0.015089185 -0.038215682 0.030713743 -0.02730371 0.053570803 -0.016081559 0.03042083 0.011831078
0.05796072 0.018383728 0.026847985 -0.01570924 0.0076066907 -0.017268311 0.0035876082 7.5736156e-05
0.0069718095 0.03073645 -0.032671075 0.024241863 -0.023564503 0.0012024047 -0.041915983 0.0112969335
0.008422604 -0.06013009 0.07370159 0.007720758 -0.033510078 0.015777096 0.05122812 0.008872788
0.040863164 0.044708077 -0.012836144 0.035362925 -0.00024732077 -0.0009549288 0.025935082 -0.0065207942
0.009456191 0.020652382 0.032321 0.003265829 0.01985956 0.008287878 -0.009337763 0.022058947
0.007848566 -0.01740463 0.017947298 -0.041694332 0.0030101894 0.024082448 0.025617095 -0.012754512
0.02164219 0.013246746 0.023123506 0.013758237 0.0042758533 -0.011340998 0.03626861 -0.014615614
0.010424307 0.031996004 0.043505933 -0.00887916 0.026359914 -0.020869214 0.006264251 0.022803713
0.02382342 0.014737343 0.024674876 0.015795954 0.017126072 -0.009982146 0.02918389 -0.06362353
0.03640138 -0.003118389 0.028501686 0.047923047 0.018641539 -0.022469716 0.03896525 -0.012093634
-0.045640435 -0.019557785 0.023286007 0.014952529 -0.0055984207 -0.024708554 0.028586805 0.023022821

fc2.weight f4 [10, 128]
00000000: ce23 abbd 9c64 403d 7210 82bd 3c7f 4a3d
00000010: e960 bdbd 57dd c5bb 3bf0 38be 75f6 23be
00000020: 87a2 38bc 80b9 fdbc 2bca 7dbb d56e ab3d
00000030: cd88 083d 9817 1d3e 3aff 5b3d a6ee 373d
00000040: 9719 c4bd 6b51 8f3d a530 3dbd ece1 8cbc
00000050: b6b3 5bbd 5f80 373d 1a0b 5ebe f92b 14be
00000060: 116f 983d c0a6 e53c bc78 8b3d 9b94 a43d
00000070: d3a4 983c 0e42 b9bd d7c5 0cbe f8df 073d
00000080: b0a8 f73a 117b 483c d653 ac3d 16db cfbc
00000090: bdd8 fabd c43f fd3d 4f3f f4bd fd2d 043e
000000a0: b2b3 a23d df84 193e 3f81 533c 5705 88bd
000000b0: a49d 21be 8013 c93c 92ef 9e3d 5868 0b3d
000000c0: ed0d 32be d4fe 31bb d57e 01bd e3b7 623e
000000d0: 1f83 5e3d b05b c5bb 2386 b83d 04f3 16bc
000000e0: 2f1c 00ba 1db2 d2bc 24b0 acbd 04b6 d23d
000000f0: 219a 6cbc 304f 8a3d 4259 6cbe eb9c aebb
00000100: 3422 193e 5f4a 283d e272 1bbe c887 02be
00000110: da70 023d 9de4 3f3d 6071 fe3c 7a6d 30be
00000120: 2ad5 f9bc 9d9f 9fbd 7a4c 2b3e 94bb 3d3d
00000130: f0da 80be 8509 f0bc 9027 173d d6f4 20bd
00000140: 4e3e 783d f795 933d 8653 2cbe fed9 4e3d
00000150: 2cde 31bd df31 a93d 6ff6 653d b737 4fbc
00000160: fb08 703c c335 243d 91fc 7bbc 5794 9d3d
00000170: 984a 9a3c d7df 8b3d b80a 8ebe 43f3 093e
00000180: afcd b53d 2839 b7bd 05dd bc3d 3b03 29be
00000190: d41a edbd ebad 74bd 9626 49be b087 a5bd
000001a0: 0d1f 1abd 0eb4 4bbe fa70 4b3c 9a70 333e
000001b0: 4e49 36bd c43b 16bd 1a43 ec3d 1e4b 3dbd
000001c0: 82c9 223e 0714 ffbb 7ec0 07bd 2ed3 a63c
000001d0: da2d 493d 0a14 84bd 930c 5bbd fa97 2a3d
000001e0: 77bd 4dbd f73c 9abd e160 073e a547 803c
000001f0: 7df5 523d 110b 0a3d 8d92 0d3e 07d3 093e
00000200: d51c 973d 4988 8a3d 5c04 e13c 9627 9c3d
00000210: 98b1 023e 6584 813d efb5 b73d 9d27 e2bc
00000220: 8886 94bc 1794 1fbe 2f07 03bd 941c bcbd
00000230: 3a9e f4bb ff96 173e 070f 7c3d 25e7 3dbe
00000240: 5c31 28be 291d 9a3c d96a 64bd 663a 96bc
00000250: 18be 593e 9b1a 2cbd 718c 27bc 0248 4e3d
00000260: 91c3 b93b 037f 463d 67cf 4b3d f834 fc3c
00000270: acde 0abe 61fe 00be 5368 e13d d66c 983d
00000280: c34b 903d 9050 67bd a430 003e 50c1 213b
00000290: 9aee 0c3d db62 0c3c 4fab ea3d 3556 0d3c
000002a0: 729b 5bbb 3d07 96bb f8ad 33bd 5c46 49bd
000002b0: ea0f e1bc fe47 eb3c e971 773d ac2a 3a3d
000002c0: 0537 623d 9d89 f13d fd14 ad3c 39d5 e3bb
000002d0: 2530 84bd 9fd4 0a3d 7680 dcbd c5eb d6bc
000002e0: 5693 a63c bc93 45bd d336 603e a337 efbd
000002f0: e8b7 b7bc e071 38bd e446 ee3d 6e8d 7e3d
00000300: 338e c7bd 31fe 033e 64bf af3d c23c 583d
00000310: 78dc 86bd ddfb 08be 6edb 3b3d b2a0 2cbe
00000320: f486 10bc d886 63bd 8d3a 0dbe 2c17 923d
00000330: 48e4 e9bd a753 8cbd ffbf 40be 8e63 2dbb
00000340: 2509 09be 81d9 ccbb ee32 ac3d a81b 51bd
00000350: 9387 32be 79c1 2ebe 46a5 bfbd f8f5 babc
00000360: ac03 bbbc bc6e ca3b 8ae8 82be f490 9dbb
00000370: b0a6 3cbd ec39 023c 45c3 843c 8911 65bd
00000380: f12b e6bd d037 c03d 6f2c 213e 48b1 01bd
00000390: a1f2 11bd c35f 1e3d 821d 243d af2c 35be
000003a0: 56b2 823d 5a06 a5bd 80b8 aebc 9b6e 763d
000003b0: 44fd 2c3d 2b7d 7dbd 73bc a83c b7a1 26bd
000003c0: b1c4 193e f7b9 c7bd c4ef 773d 93e5 2cbd
000003d0: 9460 15be 0915 82bd 1842 1c3e da90 11be
000003e0: 7e1c 843d 84bb 46bc 42cb 263a fd18 be3d
000003f0: 5ec3 65bd c25e 10be 7d02 ffbd 4121 79be
-0.083564386 0.04697095 -0.06350793 0.049437746 -0.09247 -0.0060383487 -0.1806039 -0.16011985
-0.011269218 -0.030972242 -0.0038725238 0.08370749 0.03333359 0.15341032 0.0537102 0.044905327
-0.095751934 0.06997951 -0.04618897 -0.017197572 -0.053638183 0.04480016 -0.21683922 -0.14469899
0.07443059 0.028033614 0.06810138 0.08036157 0.018633282 -0.09045802 -0.13747345 0.033172578
0.0018894877 0.012236373 0.08414428 -0.025373023 -0.12248371 0.12365678 -0.11926138 0.12908168
0.079444304 0.14992093 0.012909233 -0.066416435 -0.15782791 0.024545431 0.07760538 0.034035057
-0.17388125 -0.0027159946 -0.031615097 0.2214046 0.054324266 -0.006022893 0.090099595 -0.009213213
-0.0004887012 -0.025719697 -0.08432034 0.10288623 -0.014441044 0.06753385 -0.23080924 -0.0053287647
0.14954454 0.04108655 -0.15180543 -0.12747109 0.031845905 0.046848882 0.03105992 -0.17229262
-0.030497152 -0.07794116 0.16728392 0.046321467 -0.25167036 -0.029301414 0.036902964 -0.039295994
0.060606293 0.07206338 -0.16828737 0.050500862 -0.04342477 0.08261465 0.05614322 -0.012647561
0.014650579 0.040090334 -0.015380041 0.07694309 0.018834397 0.068298034 -0.27742553 0.13471703
0.08877122 -0.089464486 0.09221844 -0.16505139 -0.11577383 -0.059736174 -0.19643626 -0.08082521
-0.03762727 -0.19892904 0.012417072 0.17523423 -0.044503503 -0.03667809 0.11536236 -0.046214215
0.15897182 -0.00778437 -0.03314256 0.02036437 0.049115993 -0.06449135 -0.05347879 0.041648842
-0.050229516 -0.07531159 0.1322055 0.015659163 0.051503647 0.03370196 0.13825436 0.13459407
0.07378546 0.067642756 0.027467899 0.07624738 0.12763059 0.063240804 0.08970248 -0.02760678
-0.018130556 -0.15583836 -0.031989273 -0.09185138 -0.007465151 0.14803694 0.06153777 -0.18545206
-0.16425079 0.018812733 -0.05576596 -0.018338393 0.21263921 -0.04201756 -0.010226355 0.05036164
0.0056690653 0.04846097 0.04975834 0.030786976 -0.13561505 -0.12597038 0.110062264 0.07442634
0.070457004 -0.056473315 0.12518555 0.0024681874 0.034407236 0.008568491 0.11458456 0.00862651
-0.00335094 -0.0045784996 -0.04386708 -0.049139366 -0.027473409 0.028720852 0.060411368 0.04545085
0.055228252 0.11793826 0.021128172 -0.0069529084 -0.06454495 0.033894178 -0.107666895 -0.02623547
0.020333927 -0.048236594 0.21895914 -0.11680534 -0.02242656 -0.045030475 0.11634615 0.062146597
-0.09743919 0.12889935 0.08581427 0.05279232 -0.0658502 -0.13377328 0.04586356 -0.16858175
-0.008821238 -0.05554852 -0.13791867 0.07133326 -0.11420494 -0.06851893 -0.1882324 -0.0026457044
-0.13382395 -0.0062515144 0.084081516 -0.051051766 -0.1743453 -0.17065991 -0.09357695 -0.022822365
-0.0228289 0.0061777513 -0.25568038 -0.0048085395 -0.046057403 0.00794838 0.016206393 -0.055924926
-0.1123885 0.093856454 0.15739606 -0.03166321 -0.03563178 0.038665544 0.040067203 -0.17692827
0.06381671 -0.08057852 -0.02132821 0.060164075 0.04223372 -0.061886948 0.020597672 -0.040681567
0.15016438 -0.09752267 0.060531393 -0.042211127 -0.14587623 -0.063516684 0.15259588 -0.14215413
0.06450747 -0.012129668 0.0006362685 0.0928211 -0.05609452 -0.14098647 -0.124516465 -0.24329092

fc2.bias f4 [10]
00000000: 450e ae3d d840 7cbd 28d9 033b 8136 1abd
00000010: 197c 623c 82c6 413d cc48 4cbd 7be8 8ebd
00000020: 79cb 663d 2f07 0c3d
0.084988154 -0.061585277 0.002011845 -0.037649635 0.0138235325 0.047308452 -0.049874112 -0.06977936
0.05634639 0.03418654
